models/best_model.pt (torch, 506530 bytes, 16 tensors)

initial_embedding.weight f4 [128, 11]
000000 fe 0c da 3d af 8f e7 3d d2 2f 60 be 51 49 c6 bd
       0.10647009 0.11306702 -0.21893242 -0.09681953
000010 b5 23 17 bd b6 1c 27 3e 24 ff fb bd d9 95 25 3e
       -0.036899287 0.16319546 -0.123045236 0.16170444
000020 2d e0 f8 bd 7d 3a bd bd a9 35 82 be fb 8d 13 be
       -0.12152133 -0.092396714 -0.25431564 -0.1440963
000030 56 b8 60 3e e0 bd 5b bc 97 03 43 be 85 83 29 3e
       0.21945319 -0.013411969 -0.19044338 0.16554077
000040 c1 57 83 be ce d4 15 bd 69 e6 27 3e 7c 20 84 3e
       -0.25652888 -0.0365799 0.16396488 0.25806034
000050 9b 28 d8 bd ba 9a 4b be fd 5c 77 3d 9a 77 cc be
       -0.1055462 -0.19883242 0.060391415 -0.39935
000060 5c fd 1c 3e 57 b4 a3 bd b3 6c b4 be 35 6a a7 3d
       0.15331024 -0.079933815 -0.3523918 0.08174554
000070 af 81 a9 3d b6 eb 45 be bc ed 45 3c b9 ca f5 3d
       0.08276688 -0.19328198 0.012080606 0.12001557
000080 aa 75 98 3c 83 69 90 bd 3a a3 91 3e 51 01 47 3c
       0.018610794 -0.07051375 0.28444844 0.01214631
000090 1f 97 fb 3c 69 06 49 3c 88 6d af bd 34 1d 36 3e
       0.030711709 0.012269595 -0.08565813 0.17784578
0000a0 c3 c1 40 3d 4a 4e 73 3d b3 dc 5d be 2e 1c 38 bd
       0.047059786 0.059400834 -0.21666221 -0.04494875
0000b0 71 ae d9 3d 8e 6b 3a be c5 73 33 3d 9c e7 db 3d
       0.10628975 -0.18205091 0.04381158 0.10737535
0000c0 79 35 36 be 2f c9 0e 3e fd 79 2b 3e a2 89 7d 3e
       -0.17793836 0.13943933 0.16745754 0.24759534
0000d0 41 12 5d 3e fb 72 8b 3e 99 b0 65 3e cb ad 27 3d
       0.21588995 0.2723616 0.22430648 0.040937226
0000e0 61 90 b1 bd d4 f0 6d bd e4 e8 49 3e 90 8f d4 bd
       -0.08670116 -0.058091 0.19717747 -0.10378945
0000f0 f1 65 78 be d2 59 cc bd 5e eb 6f 3c fe b4 99 be
       -0.24257638 -0.09978069 0.014643518 -0.300209
000100 00 5f f1 bd 4e ab 6e 3e 23 de 12 3e ff 57 96 3e
       -0.11785698 0.23307535 0.14342551 0.2936401
000110 1a 68 9a bd fd ab 11 3e 2b ca d4 3d 93 58 91 be
       -0.07539387 0.14225765 0.10390123 -0.2838789
000120 f9 62 8a be 9c ea 04 3e 7e 1c 26 be 51 cd 91 3e
       -0.27028635 0.12980121 -0.16221806 0.28476956
000130 91 fb 14 3d d7 a0 4e bd ce 77 70 3d 5f 65 fc 3e
       0.036372725 -0.050446358 0.058708005 0.4929609
000140 32 e9 c8 be 5d ab a4 3d a1 c3 7f 3d b7 9c f9 3d
       -0.39240414 0.080404975 0.062442426 0.12188094
000150 15 27 5a be 1d 10 65 bd 34 9e 84 3e 72 0a 83 3e
       -0.21303971 -0.05592357 0.2590195 0.25593907
000160 d5 e1 ab 3d a7 f4 4b be 26 7c ef bd 31 2a 3d be
       0.083926834 -0.19917546 -0.11693601 -0.18473126
000170 11 67 7a be ed 1d 0e be b5 b0 80 3e 39 96 96 bd
       -0.24453379 -0.13878603 0.25134817 -0.073528714
000180 ec 9b f9 bd 8e a6 93 bd 7c da 77 3e b6 5f ab bb
       -0.12187943 -0.07209502 0.24204439 -0.0052299155
000190 1a 09 93 be e5 d4 26 be 8b cd 09 3e f2 cd 61 3d
       -0.2871788 -0.1629215 0.13457315 0.055128045
0001a0 cc 2d 08 bc bf 45 5d be e4 6f e1 3d cb 88 69 3e
       -0.0083117 -0.21608637 0.110076696 0.22806089
0001b0 5e 56 c1 bc 2f 7d 87 be 6c 90 38 3e 5d e0 87 be
       -0.023600753 -0.26462695 0.18023843 -0.26538363
0001c0 15 94 de 3e 39 88 00 bc 28 6e 03 bf 2a eb aa 3d
       0.43472353 -0.007844978 -0.5133996 0.08345635
0001d0 ce 1c 18 3e d7 7f 0e be 5c 70 39 3e e2 fa 89 be
       0.14854738 -0.13915955 0.18109268 -0.2694922
0001e0 6a cf 3e 3e e6 64 17 be a9 56 2e 3e 51 5e 8a 3e
       0.1863381 -0.14784583 0.17025246 0.27025083
0001f0 5f 5e f6 bc b3 90 e1 bc dc 36 41 be 84 66 99 bd
       -0.030074297 -0.027534818 -0.18868583 -0.074902564
000200 7f 52 95 3d 8b 9a 01 3e d6 2a bf 3c a3 a5 ce bd
       0.072911255 0.1265661 0.023335855 -0.100901864
000210 b8 ab 8a be 69 03 81 3e 3f af a9 be a0 57 bc be
       -0.27084136 0.25197914 -0.33141515 -0.36785603
000220 50 41 8c 3e 82 72 3c 3e 99 2f 2a bd 3d e0 f2 3c
       0.2739358 0.18403056 -0.0415493 0.02964794
000230 4a 7b 64 be 23 0e e6 3c 7f 97 03 be d2 27 fb bc
       -0.22312656 0.028082913 -0.1285076 -0.030658636
000240 ef 26 c4 be 8e 4b da 3e 54 76 05 bf 93 2a 63 be
       -0.38310954 0.4263577 -0.5213368 -0.2218421
000250 12 57 f3 3c 69 49 7d be 1b e4 96 be 28 75 7d 3e
       0.029704604 -0.24735035 -0.29470906 0.24751723
000260 74 74 5d be 5b 80 8a 3e fc db b2 3d 11 60 41 3e
       -0.21626455 0.27051052 0.08733365 0.18884303
000270 ad 16 38 3d 50 9d be 3d 74 34 0a 3e 81 f4 b4 bc
       0.0449435 0.09307349 0.13496572 -0.022089245
000280 1e 4f 82 be 4e d0 84 3e 74 60 46 be 89 dc ab 3c
       -0.25450987 0.25940174 -0.19372731 0.020979183
000290 fa 5f 45 be 50 0b 78 3e c5 2d 9f be 78 9f bf 3e
       -0.19274893 0.24223065 -0.31089607 0.37426353
0002a0 96 8e 2b be c6 95 56 be 9d 5f e0 bd 7f 60 32 bb
       -0.16753611 -0.20955572 -0.10955737 -0.002721816
0002b0 37 8c 3b 3c f4 47 91 be 85 68 f3 3d d9 e1 99 3e
       0.011447004 -0.28375208 0.1188517 0.3005512
0002c0 14 d9 9d bd 0f 27 a4 be 6d ee 5f 3e 8c 4a a7 be
       -0.0770742 -0.3206105 0.21868296 -0.32674062
0002d0 a0 62 3c be a0 8e ee 3c 87 fa 7c bd bf 3c 22 3e
       -0.18396997 0.029120743 -0.06176236 0.15843485
0002e0 e5 0f 00 3e c5 97 4f be b7 5d fa 3c 38 bd ae 3e
       0.12506063 -0.20272739 0.030562265 0.34128737
0002f0 18 10 4e 3e 12 61 10 bc 6b 25 1f 3d 74 4a 04 be
       0.20123327 -0.008812206 0.038854044 -0.12919027
000300 c6 75 b5 bd f3 77 c0 3d f5 10 2a be 63 d2 56 bd
       -0.08860354 0.093978785 -0.16608031 -0.052446734
000310 9d 86 a6 bd 24 9e 04 be 63 37 b7 3d f7 17 9a be
       -0.08131144 -0.12950951 0.08946111 -0.3009641
000320 40 81 a1 3e 94 52 64 be 0a e2 00 bf 9b e0 24 3c
       0.31543922 -0.22297126 -0.5034491 0.010063316
000330 70 fe 00 be 6f 6d 10 be 2c f9 9e 3d 07 05 96 3e
       -0.1259706 -0.14104246 0.077623695 0.2930071
000340 b1 cd e0 3d 3c 71 d1 3e 98 55 bf 3d 36 17 32 3e
       0.109767325 0.40906703 0.093424976 0.17391667
000350 ec 50 32 be 4e bd b2 bd c6 9e e0 bd 62 e9 23 be
       -0.17413682 -0.08727513 -0.10967784 -0.16006997
000360 86 18 a5 3d ed 8f ba bd 6c 35 8d 3e 8c 00 b6 bb
       0.08061318 -0.09109483 0.2757982 -0.0055542644
000370 c1 62 cd 3b 46 8c 89 bd 59 05 ce 3c 46 db a7 3e
       0.006267876 -0.06716208 0.025149034 0.3278448
000380 1f c4 bf be c3 70 21 3e ea 1f 7d 3c 23 26 7e 3e
       -0.37454316 0.15765671 0.015449503 0.24819236
000390 51 b7 8d be 8c 92 1a be 56 d5 e7 be 86 d7 b7 3d
       -0.27678922 -0.15094966 -0.4527995 0.08976655
0003a0 58 04 bc 3e 12 a4 be bd fa a3 35 be 34 aa 79 be
       0.36722064 -0.09308638 -0.17738333 -0.24381334
0003b0 fe c4 66 3d 2e 27 73 be e6 6a 15 bd e2 68 75 3e
       0.05634021 -0.23745415 -0.0364789 0.23965791
0003c0 cc a8 63 be 08 6a d4 3a 7e e9 31 3e 50 2b 5b be
       -0.2223236 0.0016205916 0.17374226 -0.21403241
0003d0 f5 85 74 3e a5 f3 a5 be 8e 12 35 be 83 e5 8e 3d
       0.23879226 -0.3241245 -0.1768286 0.0697737
0003e0 75 ba 93 be b9 c5 2e 3c 1a 0b 8f be e6 cc 66 3e
       -0.28853193 0.010667258 -0.27938157 0.225391
0003f0 6f 2e 88 3e a1 91 fb 3d b3 8e ce bd 0f d6 6c 3e
       0.26597926 0.12283636 -0.100858115 0.23128532

initial_embedding.bias f4 [128]
000000 95 16 9d be 8d 4f c3 3d fd bb 1a be b5 7c fe bd
       -0.3068129 0.095366575 -0.15110774 -0.1242613
000010 73 49 16 be 03 ba 1c 3e 1d d2 ec bd 11 23 59 bd
       -0.14676456 0.15305333 -0.115635134 -0.053011958
000020 c7 f0 fe ba 5d ef f9 bd 36 9f a1 be 12 4a 0b 3e
       -0.0019450419 -0.12203858 -0.3156678 0.13602474
000030 63 76 bb bd d9 96 8c bb ca b7 22 be 36 98 bb 3e
       -0.0915344 -0.0042904434 -0.15890422 0.36639565
000040 7d ae 4a 3d 3b 24 12 3b e0 c5 54 3e ca 3c b2 3e
       0.04948281 0.0022299427 0.20778608 0.34812003
000050 fb 16 35 be 32 6e 3b be 08 eb f5 bd 46 d1 6c be
       -0.17684548 -0.18303755 -0.12007719 -0.23126706
000060 b4 18 ae bc f4 72 73 be 6e b8 83 be 48 99 b3 bd
       -0.021252014 -0.2377432 -0.25726646 -0.087694705
000070 3d 4a e7 bd 2a ed b9 3e 4e d5 52 be 6b 28 e7 3d
       -0.11293457 0.36313754 -0.20589182 0.11287006
000080 94 d2 f3 bd 33 3f c1 3d 3b a1 07 3e 58 77 43 be
       -0.11905399 0.094358824 0.13245098 -0.19088495
000090 a7 10 85 bc 08 77 f3 bd 87 47 95 bd 3b 82 f9 bd
       -0.016243292 -0.11887938 -0.072890334 -0.121830426
0000a0 08 95 73 be 7c e9 c2 bd 12 aa af 3e de eb 58 3e
       -0.2378732 -0.0951719 0.3430944 0.21183726
0000b0 50 82 88 3e ec c0 84 3d aa 19 1a be 1b ab 09 be
       0.2666192 0.064821094 -0.15048853 -0.13444178
0000c0 b3 73 30 bd 8a 78 da 3c 1d 83 ba bd f7 88 9d 3e
       -0.04307909 0.026668806 -0.09107039 0.30768558
0000d0 ed 51 9c 3d bc 13 90 3c 56 4f a8 bd 9d 42 b4 bc
       0.076328136 0.017587535 -0.08218257 -0.02200442
0000e0 73 cd 49 3e 73 4a 96 be 79 d4 cb 3d 8e 6d 3a 3d
       0.19707279 -0.29353675 0.09952635 0.045514636
0000f0 a6 a8 4e be 17 3a 8c be e2 8e 99 be bc a3 d8 3d
       -0.20181522 -0.2738807 -0.29991823 0.10578105
000100 da 0b 39 be 35 7a 55 be 0d 6e f0 3d 83 0f ad 3d
       -0.18070927 -0.208474 0.117397405 0.08450224
000110 b3 4e a1 be c9 fe 3c 3e 55 82 0c 3e ed 9f 38 be
       -0.31505355 0.18456568 0.13721593 -0.18029757
000120 a8 b9 85 bd 3e 06 6d bd 92 26 cf bd 61 74 f2 3d
       -0.06529552 -0.05786728 -0.101147786 0.11838604
000130 cc e1 89 be 73 70 58 3e a6 8f 43 be 9d 94 75 3e
       -0.26930082 0.21136646 -0.19097766 0.23982473
000140 13 fa 58 3e e0 78 8a be 4a 5d 73 3c 1d a8 12 3e
       0.21189146 -0.27045345 0.014853785 0.14321943
000150 84 6e 06 3e 04 dd d6 bb 1a 42 d3 bd 6c 4e b5 3d
       0.13128096 -0.006557109 -0.10315342 0.088528484
000160 d3 b7 98 be 4c 41 f2 bd ff dd 53 3e ba 91 f9 bc
       -0.29827747 -0.11828861 0.20690154 -0.030464996
000170 e8 be 32 bd 14 2b 7a 3e a6 b0 2b be 1d 80 91 be
       -0.043639094 0.24430496 -0.16766605 -0.28418055
000180 55 87 69 bd 91 ce 2a 3d ac d4 d2 bd ed 7f 84 3d
       -0.05701383 0.041700903 -0.1029447 0.064697124
000190 61 a6 9b be 76 c2 62 be 86 16 a0 3e ee a3 fd bc
       -0.30400375 -0.22144493 0.31267184 -0.030961957
0001a0 31 c2 72 be 14 1f 1c bd a0 70 ec bc cb 15 a6 bd
       -0.2370689 -0.038115576 -0.028862298 -0.081096254
0001b0 b1 b6 4f be e7 3f 91 be 9a 5c 1e 3d d1 11 95 be
       -0.20284535 -0.28369066 0.03866253 -0.29115155
0001c0 9c 38 c4 3d b7 a7 0f 3e 99 d9 62 be 14 4b c1 3e
       0.0958111 0.14028822 -0.2215332 0.37752593
0001d0 f6 3c f7 3c bf b0 36 bd f3 a2 2c be 09 cc 94 be
       0.030180436 -0.044602152 -0.16859035 -0.29061916
0001e0 bd 83 b4 3b 4b 66 2c be b7 52 cb bd 49 f3 a9 3d
       0.0055088685 -0.16835897 -0.09927886 0.08298356
0001f0 2b 1d 3d 3e 71 83 29 be f2 96 8a be b2 80 b4 3e
       0.18468158 -0.16554047 -0.27068287 0.35254437

conv_layers.0.lin_rel.weight f4 [128, 128]
000000 c2 de 84 3c 44 e0 9b bd 3e 7f b0 3b 22 ee cb bc
       0.0162195 -0.07611135 0.005386262 -0.024893824
000010 42 83 b3 3b 34 1b 52 3d 4f 94 ae 3c 26 4c 8f 3b
       0.0054782936 0.051295474 0.021310953 0.0043730913
000020 00 ea 9d bb 06 70 5a 3d 86 86 6e 3d 70 10 79 3c
       -0.0048191547 0.05332949 0.05823376 0.015201673
000030 8d 10 bb bc 16 dd a4 bd 86 c5 68 bc 90 7a 98 bd
       -0.02283504 -0.08049981 -0.0142072495 -0.07445252
000040 18 9c f2 bc 79 92 ad bd bd 57 5c bb 1a 6a a1 3d
       -0.029615447 -0.08475203 -0.0033621632 0.078815654
000050 2d be 82 3c 67 b5 41 bd 60 b4 90 bd f0 98 15 ba
       0.015959824 -0.04729214 -0.07065654 -0.00057066884
000060 47 b1 63 3d 07 15 84 bc 0d 7d 87 3d c4 4a ae bb
       0.055588987 -0.016123308 0.066156484 -0.0053189714
000070 55 ee cc bc 78 d7 15 3d 62 cc a0 3d a4 f9 8f 3d
       -0.02501599 0.03658244 0.07851483 0.07030037
000080 21 c6 71 bd 31 fc bb bd 23 ad 75 bd d7 53 5e 3d
       -0.05902684 -0.09178961 -0.05997957 0.054279175
000090 ce f6 86 3c 38 ec 93 bc 99 51 11 3d f2 41 ba bc
       0.016475108 -0.018056974 0.03547821 -0.022736523
0000a0 33 73 85 3c e0 34 ab 3d 3a 3a a1 bd 5f 26 ed 3c
       0.016290283 0.083596945 -0.07872434 0.02894896
0000b0 bc 6e 93 3c e8 8b 03 bd 0e 53 80 3d 56 ba 4c bb
       0.017997138 -0.032115847 0.062658414 -0.0031238995
0000c0 4d f3 6d bd 52 78 c8 3c 1d 3f f7 bb 59 d0 75 3d
       -0.058093358 0.024471436 -0.0075453655 0.06001315
0000d0 95 f8 3d bd 25 e9 32 bd 9c fa 29 bd dd b6 59 bd
       -0.046379644 -0.043679375 -0.041498765 -0.053152908
0000e0 e6 5f e7 3c de 33 8a 3d 5b c2 a9 3c ea e2 61 bd
       0.02824397 0.06748174 0.020722559 -0.055148043
0000f0 3b bc 75 bd eb 8f 8d 3d 26 81 3b bd 9e 60 18 bd
       -0.059993964 0.06912216 -0.045777462 -0.037201516
000100 12 8a 91 3d b2 cd 10 3d 92 ba 30 bd 31 d1 8f 3c
       0.07106413 0.035352416 -0.043146677 0.017555805
000110 18 96 2e 3d 60 b4 a9 3d 5f b5 02 bc f3 c0 f9 bc
       0.04262361 0.08286357 -0.007977813 -0.030487513
000120 f7 76 5c 3b 1e ce 2c 3d 5d 0f 92 3d e8 36 8b bd
       0.0033640245 0.042188756 0.071318366 -0.06797582
000130 68 0a b1 3c 8a 42 51 bc bb 2e fa bc 8d f9 9b bd
       0.021611407 -0.012772212 -0.030539861 -0.076159574
000140 a2 d5 97 3d 63 b2 70 3d f8 64 73 3c f3 0d 27 bd
       0.07413794 0.058763873 0.014855616 -0.040784787
000150 b9 05 4e bc 18 42 41 bd d8 64 ec 3c 9a 50 a2 bd
       -0.012574607 -0.047182173 0.02885668 -0.0792553
000160 f2 0f 7a bc d7 1c 26 3c 3e dd f4 3c ad c9 51 bd
       -0.015262591 0.010138712 0.029890653 -0.051217724
000170 ed 17 94 bd e1 df 0a bd e5 85 12 3b d3 b9 98 bd
       -0.07231126 -0.033904914 0.002235764 -0.07457318
000180 96 1e a6 3c 12 9a ad bd 9a c8 d4 3c 82 ae e8 3a
       0.020278256 -0.08476652 0.02597456 0.0017752203
000190 1e e0 0e 3d 77 61 8b 3d b0 97 73 bd 53 b6 ae bd
       0.034881704 0.06805699 -0.059470832 -0.08530869
0001a0 b3 89 9e 3c 41 0b 26 3d 45 c5 e5 bc 98 9f af 3c
       0.01935277 0.040538076 -0.028048167 0.021438405
0001b0 2a 37 ff bc 39 f4 02 bd cb 00 53 3d c3 da 5d bd
       -0.031154234 -0.03197119 0.051514428 -0.054163706
0001c0 74 48 3d bd 8a d9 a0 3d 26 de ba bd 1a 8d 78 3d
       -0.046211675 0.07853992 -0.09124403 0.06068144
0001d0 14 91 8c 3d d9 67 a6 3d 62 49 31 3d bc 55 6c 3c
       0.06863609 0.08125276 0.043282874 0.014424738
0001e0 32 e3 d8 bc 73 49 3b bd 48 cb 0f 3d ce bf ea bc
       -0.026475523 -0.045724344 0.035105973 -0.028655913
0001f0 7a 4f 43 3c 4d 59 26 3d 82 f4 27 bd ef e4 8e bd
       0.011920804 0.040612508 -0.041004665 -0.06977259
000200 19 9d af bd 48 7b 04 bd a9 49 8c bd 0d 69 6b 3d
       -0.08574886 -0.032344133 -0.06849987 0.05747323
000210 ed 3f 83 bd 28 d0 39 bd 62 27 a5 bd a8 9c 8c 3d
       -0.06408677 -0.04536453 -0.08064152 0.06865817
000220 2e 8a 27 bd 77 c5 1d 3d 11 94 09 3d b3 8b 4c 3d
       -0.040903263 0.038518395 0.033588473 0.049937915
000230 97 83 a4 3b a2 86 be bd f1 40 d3 39 22 d0 77 3c
       0.0050205695 -0.09303023 0.0004029344 0.015125306
000240 cf 39 9b bd 4c d1 f2 bc e7 f6 20 bd 60 df 6f bd
       -0.075793855 -0.029640816 -0.039297964 -0.058562636
000250 ec e3 0c 3d 71 63 90 bd d2 c9 c1 bd 25 2b 6a bd
       0.03439705 -0.07050217 -0.09462322 -0.057170052
000260 b5 e1 56 bd f8 0f 81 3d 57 c1 d7 bc 85 9f 98 3c
       -0.052461345 0.06301874 -0.026337309 0.018630752
000270 d0 34 a4 bc 1d 67 84 3d 11 2b 1a bd 43 58 98 bd
       -0.020044714 0.0646498 -0.037638728 -0.074387096
000280 e3 9a b1 bd 95 41 bf 3b 9a 16 8f 3d 61 ff 9a 3d
       -0.086721204 0.0058366754 0.06986733 0.07568241
000290 5e b1 60 3b 09 d5 db bb 86 f3 80 3b c6 45 0c 3d
       0.0034285407 -0.0067087454 0.0039352803 0.03424623
0002a0 e6 4c f0 3c a4 2d a6 bb 09 ba 72 3d 5f 2f 08 3b
       0.029333543 -0.0050713588 0.05925945 0.0020780188
0002b0 5b 23 6a 3d 9b 32 8b bd c6 f5 97 3d 6f 44 17 bd
       0.057162624 -0.067967616 0.074199244 -0.036930498
0002c0 b3 39 39 3d 6c 5d 6b 3d 3b 81 8a bd c5 bd 50 3b
       0.045221042 0.05746214 -0.0676293 0.0031851393
0002d0 59 23 7e 3d cb 91 b9 bd a7 1b 4b bd 92 3e 6b 3d
       0.06204543 -0.09061011 -0.04958692 0.05743272
0002e0 e1 4a 80 3c cc c7 95 3d 1e aa 3c 3d d0 75 3f ba
       0.015660705 0.07313499 0.046060674 -0.0007303627
0002f0 fa 36 21 3d e1 fa a5 bd b3 6c b4 bd 00 e2 76 bd
       0.03935907 -0.08104492 -0.08809795 -0.060274124
000300 04 d5 4a 3d a5 2d 55 bc f1 43 9c bc 35 c2 36 3d
       0.049519554 -0.013011371 -0.019075366 0.044618804
000310 3d 26 97 3d 41 26 90 3c f1 64 f4 bc 99 20 b3 bd
       0.0738034 0.017596366 -0.029833289 -0.08746452
000320 bf 2d 92 bc 15 d9 35 3c 10 9c f6 bc 5f 8f 9c 3d
       -0.017844079 0.01109912 -0.030103713 0.07644533
000330 78 c0 87 3d 82 42 4f bd 32 ba 80 bd 75 32 84 3d
       0.066285074 -0.050600536 -0.06285514 0.064549364
000340 9d 2d 88 bd 3e 32 43 bc 1b fa 50 bc 0c cd 72 3d
       -0.06649325 -0.011913834 -0.012754942 0.05927758
000350 fc 99 3d 3d 60 f7 ad bd ae 55 9f 3c 7c f4 69 3d
       0.04628943 -0.08494449 0.019450035 0.057117924
000360 a7 8d a2 bd 9b 95 97 3d 19 1d 00 bd 35 28 92 bd
       -0.07937174 0.07401582 -0.03127775 -0.07136575
000370 2a 46 9f bb 8b 34 4a 3d 29 58 17 3d 2d 25 79 3d
       -0.004860659 0.049366515 0.03694931 0.06082647
000380 dc b6 08 bd 82 63 43 3d 28 14 08 bd 71 15 3e 3d
       -0.033377513 0.04770232 -0.033222347 0.046407167
000390 23 ae 39 ba 20 aa 09 3d df e3 2e bd 5b 01 02 3d
       -0.00070831383 0.03360951 -0.042697784 0.031739574
0003a0 3d 46 37 3d c6 f6 19 bd 07 43 a1 3c f1 b6 af 3d
       0.04474472 -0.037588857 0.019685281 0.08579815
0003b0 75 7b 76 bd fc 33 43 bd d1 b7 58 3d 66 10 bd bc
       -0.06017633 -0.047656998 0.052909676 -0.023079108
0003c0 ea 1d 76 bd 29 96 ef bc 09 7b 88 bd b7 d0 c6 bb
       -0.060087122 -0.029246407 -0.06664092 -0.006067361
0003d0 c2 9e 13 bd 61 12 1d 3d ba 80 76 bd 72 3c 9f 3d
       -0.036040075 0.038347606 -0.060181357 0.07775201
0003e0 c9 ea 8d 3d 8d 73 34 bd 4a a1 26 bd 12 d6 12 bd
       0.06929547 -0.04405551 -0.04068116 -0.035848685
0003f0 11 33 0b bd 6d 23 ad 39 55 0b 14 bd f8 be aa bd
       -0.033984248 0.00033023526 -0.03614362 -0.08337206

conv_layers.0.lin_rel.bias f4 [128]
000000 8a cc 00 bd 2e 81 a9 bd 71 45 9b 3c 57 dd 66 3d
       -0.031445064 -0.08276592 0.01895401 0.05636343
000010 46 93 e2 3c df 99 ed ba 41 aa a1 3b e4 a9 98 3d
       0.027658116 -0.0018127522 0.004933626 0.07454279
000020 62 1b aa bb 1b 72 ce bb 2b f7 1a 3d 27 81 91 bd
       -0.0051912526 -0.0063002235 0.037833374 -0.07104712
000030 6c 81 43 3d 56 af 6c 3d d5 0b bd bd e6 26 3c 3d
       0.04773085 0.0577844 -0.092307724 0.045935534
000040 ea cb 96 bd e8 d3 9e bc c6 3b 38 bd 02 c9 d3 bd
       -0.07363112 -0.019388154 -0.04497888 -0.103410736
000050 07 4c a7 bd 59 71 53 3d 25 5c c7 bd 85 78 4c 3e
       -0.08168798 0.05162177 -0.09734372 0.1996785
000060 68 f9 9a 3d 9a 4e c0 3d b0 2f 01 3d 37 72 65 bd
       0.07567102 0.09389992 0.03153962 -0.056017127
000070 71 37 9a 3d 2e 5f 31 bd cb 72 a9 3b 97 ee b0 3b
       0.07530106 -0.04330366 0.005171155 0.005399536
000080 cc b9 b0 bd a8 5e 5c bd a7 11 8a bc c5 3a 93 3d
       -0.08629188 -0.05380121 -0.01685412 0.07188944
000090 30 10 56 bd e6 5a 58 3d 5d 6a 4e bd 30 44 a8 bd
       -0.05226153 0.052821063 -0.050394405 -0.08216131
0000a0 78 67 48 3a d3 08 0d 3d 4e f0 87 bb ff 6f a7 bc
       0.00076448126 0.034432244 -0.0041485196 -0.020439146
0000b0 c8 cf bb 3c 8d 00 6a bd 67 b9 8c bd 50 b3 0b bd
       0.022926226 -0.05712943 -0.068713 -0.034106553
0000c0 04 be 52 bd 79 bc 75 bd 60 67 36 bd d9 7d 90 3c
       -0.051450744 -0.059994195 -0.04453218 0.017638134
0000d0 bb bf 75 bd 44 58 1d 3c af 60 2e bd 38 f4 67 3d
       -0.0599973 0.009603564 -0.042572673 0.05662939
0000e0 e3 4f d5 3c ff 22 bc 3a 96 d0 92 bd 0d c1 79 bc
       0.02603907 0.0014353691 -0.07168691 -0.015243781
0000f0 bb 92 23 bd 27 bb 8d 3d 47 86 94 3d 92 19 46 3b
       -0.039934855 0.06920462 0.07252174 0.0030227643
000100 b6 15 74 bd 8a 17 8a bb f6 2a b4 bc 1a d4 08 bd
       -0.059591018 -0.004214232 -0.021993142 -0.0334054
000110 02 26 fc 3a ab ce 58 bd db 16 7d bd 9e 28 a9 bc
       0.0019237401 -0.05293147 -0.061789375 -0.02064925
000120 ea 82 80 bc 33 35 84 3d be 46 88 3c 6c 90 a1 3d
       -0.015687425 0.064554594 0.016635295 0.078888744
000130 73 04 ef 3b 26 b3 4c 3d 5c 3f a1 3d 8c b6 0e bd
       0.0072942316 0.049975537 0.07873413 -0.03484206
000140 b9 db 06 3e dc cd 29 3d f1 32 53 bb de a0 c1 39
       0.13169755 0.04145609 -0.0032226408 0.00036931684
000150 47 56 a5 bd 05 28 5c 3c dc e0 1a 3d cb b0 1b bd
       -0.08073097 0.013437276 0.0378121 -0.0380104
000160 79 ed f6 3d 2c 93 e9 3d 20 34 3a bc d8 34 8e bd
       0.12057013 0.11405024 -0.011364967 -0.06943673
000170 21 72 c1 bd 7c b9 37 3b 63 ba d8 bb 69 a1 35 3d
       -0.094455965 0.0028034141 -0.006614016 0.044343386
000180 7a 6e b1 3d 8c e8 98 3b 66 54 a1 bd d1 d6 73 bd
       0.0866365 0.0046663936 -0.07877426 -0.059531037
000190 1f 1d b8 3d 7f e6 82 3a 74 04 80 bd c7 58 41 bb
       0.089899294 0.0009986906 -0.06250849 -0.0029502378
0001a0 7e b4 e6 3b 42 11 cb bb 9c f8 09 3c 24 2b c9 bd
       0.0070405593 -0.0061971257 0.0084210895 -0.098226815
0001b0 9f 2f f4 3c 16 b1 84 bd aa 19 c4 bd ab 0e b1 bd
       0.029807864 -0.06479089 -0.095752075 -0.08645376
0001c0 d3 d1 7f 3d 27 53 7c bd 14 9f 3a 3d 4f 06 1e 3c
       0.062455963 -0.061602738 0.045561865 0.009645059
0001d0 ee 15 8d bd e2 1e 80 3d 56 c0 4f bd 7b db 00 3d
       -0.068889484 0.062558904 -0.050720535 0.031459313
0001e0 6f 75 9a bd 80 39 00 bc fc cb ab bc a6 75 b3 3c
       -0.0754193 -0.007826209 -0.02097129 0.021906685
0001f0 8d b2 46 3d df c7 d4 3d 26 63 f0 bb 49 2d 8b bd
       0.048510123 0.10389685 -0.007336038 -0.06795747

conv_layers.0.lin_root.weight f4 [128, 128]
000000 39 4c 65 bd 0f fd 00 3d 0a f9 4b 3c 29 52 69 3d
       -0.055980895 0.031491335 0.012449512 0.05696312
000010 e4 51 83 3d ac b1 80 bc 12 66 41 3d cd fd 24 bc
       0.06412104 -0.01570972 0.047216482 -0.010070276
000020 f5 4a 89 bd 5d 90 3b bd 95 6a e7 bc 0a 14 51 bd
       -0.0670375 -0.045791972 -0.028249064 -0.0510445
000030 9f 30 47 bd 75 3d ef bc a2 2b f6 bc 0b 22 25 3d
       -0.048630353 -0.02920411 -0.030050103 0.04031567
000040 47 65 21 bc 17 fa a7 bd 09 90 97 3d 20 3e a6 3d
       -0.009850807 -0.08201998 0.074005194 0.08117318
000050 a0 bc 90 bd 84 0a dd bc 7c 12 9f 3d fb e1 24 3d
       -0.07067227 -0.026982553 0.077671975 0.040254574
000060 ba 0e cc bc 6d 43 2d 3d e5 0f 2d 3d be 2d 8c bb
       -0.024909366 0.04230063 0.042251486 -0.004277914
000070 48 fc fe bc c2 08 a5 3d d9 89 37 bc 1e 90 05 3c
       -0.031126156 0.08058311 -0.011202299 0.008152036
000080 13 44 4b 3c 2c 0c 8d bd 3b cb ff bb 07 fb 32 bd
       0.012406367 -0.06887087 -0.0078062094 -0.04369643
000090 59 fd 51 bc 12 51 99 bd de 1d 8e bd 0b 26 94 3d
       -0.01281675 -0.07486166 -0.069392905 0.072338186
0000a0 a3 9d af 3d 48 eb 05 bd 2c 86 06 bd d2 48 04 bd
       0.08574989 -0.032695085 -0.0328428 -0.03229601
0000b0 e7 a4 dd bb f2 00 c5 3c ba b7 57 bd b2 b8 96 bc
       -0.0067640427 0.024048302 -0.05266545 -0.018398616
0000c0 a6 62 82 3c 20 09 db 3c 5d 82 11 3d 53 b3 1a bd
       0.01591618 0.02673775 0.035524715 -0.037768673
0000d0 d9 3d 46 bd 04 3f 6d bd a4 45 8d 3d 63 b9 93 bd
       -0.048398826 -0.057921425 0.068980485 -0.07213094
0000e0 69 83 92 3d c5 4a 8c 3d e0 14 ca bb 0f 79 4e bd
       0.07153971 0.06850199 -0.0061670393 -0.05040842
0000f0 04 95 87 3a 48 84 86 3d 5b e9 c8 bb 8e 48 9d bd
       0.0010344093 0.065681994 -0.0061313338 -0.07679854
000100 04 a1 8c 3b a7 6a 51 3d f9 4b 38 3d 1f ac 8e bd
       0.0042916555 0.051127102 0.04499433 -0.06966423
000110 53 a3 f4 3b 0a a8 a6 bd aa fc 3f bd 6a 2d 4d bd
       0.007465759 -0.0813752 -0.04687182 -0.05009214
000120 93 22 5e 3d cd ee 9d 3d 2c e1 6d bd dc a9 a5 3d
       0.05423219 0.07711563 -0.05807607 0.08089039
000130 39 4c b7 3c 38 f1 8b 3d cf da 7d bd 11 49 e9 bc
       0.022375213 0.06833118 -0.06197625 -0.028477224
000140 a9 93 88 3d a1 79 fb 3b 85 9e 1f bd 2c 84 e6 bc
       0.06668789 0.0076744114 -0.038969535 -0.028139196
000150 ac d9 8c bb fd c6 82 3d b3 1f 5b 3d a2 17 53 bc
       -0.0042984094 0.0638561 0.053497028 -0.0128840525
000160 f4 d6 48 bd 7a 43 0e 3c 24 60 ff 3c 43 2a 63 bd
       -0.04903312 0.00868308 0.031173773 -0.055460226
000170 80 4f e4 3b 01 14 06 3d b2 1a 4e bd c3 43 a5 3c
       0.006967485 0.03273392 -0.050318427 0.020173913
000180 a9 43 7c 3c 73 fc 06 3d 03 c2 38 bc 97 79 8a bd
       0.015396991 0.032955598 -0.011276725 -0.06761473
000190 cf 23 24 bc 8d 71 6e 3c 2d f6 75 bd 85 ee aa bc
       -0.010018303 0.01455344 -0.060049225 -0.020865688
0001a0 00 88 78 bd c6 a5 a4 3d 3d 93 8b 3d 0f 39 a0 bd
       -0.060676575 0.08039431 0.06815193 -0.07823383
0001b0 37 16 3c bc 74 d0 98 bd e4 fb d7 bc ca e1 35 bd
       -0.011479906 -0.07461634 -0.026365228 -0.044404782
0001c0 be 01 82 bd c2 a0 a6 bd 51 64 5e 3d f4 71 8c bd
       -0.063479885 -0.08136131 0.054294888 -0.06857672
0001d0 4d 5a 82 bd fb ac 04 bd 62 0f 9d 3d a2 82 a9 bd
       -0.0636488 -0.03239153 0.0766895 -0.08276869
0001e0 e8 fc 8b 3d 94 b3 ca 3b a6 db 9f bc 83 89 47 3d
       0.068353474 0.006185958 -0.019513916 0.048715126
0001f0 a6 8f a1 bb ad 8b 4a bc 5e 7c a4 bd 1b 0e b1 bd
       -0.0049304543 -0.012362403 -0.08031534 -0.086452685
000200 bd 39 0e bc 01 ec 53 3d f8 21 6b bd e6 af 4d bc
       -0.008680758 0.051738743 -0.057405442 -0.0125541445
000210 44 c8 c7 bc 27 3a b3 bd d2 56 4c 3d 05 39 2f 3d
       -0.024387486 -0.08751326 0.049887486 0.042778987
000220 51 3b 96 3d 42 79 0d 3c 82 2b c4 3c 0a e1 2e bd
       0.073355325 0.008634867 0.023946527 -0.042695083
000230 4d ee 00 bd 57 41 51 3d 6e 17 7f bb 38 d9 b9 bd
       -0.03147726 0.051087704 -0.0038923877 -0.09074634
000240 d8 0b 5a 3b 00 3c 4d bd c9 01 89 3d 83 98 95 bd
       0.003327122 -0.05010605 0.066897936 -0.0730448
000250 d8 13 6d bc a3 11 8e bd 82 4a 9b 3d 65 91 52 bd
       -0.014470063 -0.06936958 0.075825706 -0.05140819
000260 2d c2 a7 bd b0 71 ad bc 00 3e 51 bc 1a 6c 91 3d
       -0.08191333 -0.021172374 -0.01277113 0.07100697
000270 9c 66 b4 3c d6 6c bd bd 35 81 93 3d 0d b8 38 bd
       0.022021584 -0.092492744 0.07202379 -0.0450974
000280 67 6d 8d bd a0 87 00 3c 22 f7 82 bd 6b 22 50 bd
       -0.069056325 0.0078448355 -0.06394793 -0.050814074
000290 b8 4d 97 3d 53 5d 3c bb a2 8f eb 3b e6 51 9b bd
       0.073878706 -0.002874215 0.007188753 -0.0758398
0002a0 d1 60 aa bd 7d 6b 05 bd 92 f2 9d bd 92 b4 ac bd
       -0.083192475 -0.032573212 -0.07712282 -0.084328786
0002b0 7c 3a 90 3d 26 2e 6d bc aa e0 5e bc 46 c0 95 3d
       0.07042405 -0.014476335 -0.013603369 0.07312064
0002c0 3c f4 df bc 5b fd 68 bb 78 ea c4 3c 65 c0 29 3c
       -0.02733814 -0.0035551402 0.024037585 0.010360812
0002d0 6d 5b 4c 3d 9d 05 fb ba b1 e6 6a bd b4 1b b1 3d
       0.049891878 -0.0019151453 -0.05734891 0.08647862
0002e0 5a 13 d8 bb d4 95 8d 3c 49 ed 60 3d 73 e2 be 3c
       -0.0065941038 0.017283358 0.054913793 0.023301339
0002f0 4e 7d ae bd c9 5e 8d bb f4 0e ed 3c 70 36 13 3d
       -0.08519994 -0.004314278 0.028937794 0.035940588
000300 ce 42 0a bc 52 66 86 3a ba 90 ac bd d9 dd 3f bd
       -0.008438779 0.0010253883 -0.08426042 -0.04684243
000310 9d ac ae bd 9c 5c e0 3c 91 da 24 3d d5 04 ab bc
       -0.08529017 0.02738791 0.040247504 -0.020876328
000320 08 08 76 bc a1 60 5c bd 36 99 97 bd 2c ff 36 3c
       -0.015016563 -0.05380309 -0.074022695 0.011169236
000330 3b 1c 78 bd 03 36 11 bb d2 35 f2 bc a3 54 2f bd
       -0.060573798 -0.0022157438 -0.02956668 -0.042805325
000340 5d 36 a5 3c 29 c8 86 bd 72 bd 25 bd 52 d9 61 3d
       0.020167524 -0.06581146 -0.040463872 0.055138893
000350 36 70 3d ba a1 8a f1 3b 9a e1 b4 3c c4 19 03 3d
       -0.00072264986 0.007371262 0.022080231 0.032006994
000360 06 3c 6e bb 6c de a0 bd 20 7e 65 3d 24 cb a8 3d
       -0.0036351695 -0.078549236 0.056028485 0.08241871
000370 fc 32 34 bc 29 bc 90 3c 9c 90 81 3b ea 32 46 bc
       -0.010998484 0.017667847 0.0039540064 -0.0120971
000380 05 9b 02 bd 97 05 8f bd d1 bd 08 bd 80 6b e4 3b
       -0.03188612 -0.06983488 -0.033384148 0.006970823
000390 9b 14 63 bd 53 5d e6 bc f9 32 55 bd f3 a2 c5 3c
       -0.055439573 -0.028120672 -0.052050564 0.024125552
0003a0 73 0c ff 3c 74 b0 a7 bd 03 fd 2c bd 90 7d 27 bd
       0.031133866 -0.08187953 -0.04223348 -0.04089123
0003b0 86 e5 93 bc 08 97 ec bc 3e 90 4d 3c af 51 bb 3b
       -0.018053781 -0.028880611 0.012546597 0.0057165246
0003c0 52 d5 d7 3c 41 c0 e9 bc 49 70 47 3d 17 da 21 3d
       0.026346836 -0.028534057 0.048691068 0.039514627
0003d0 39 94 cf 3c d0 b5 84 bd 48 1c ac 3d 0c bd 36 3d
       0.025339233 -0.064799905 0.08403832 0.044613883
0003e0 d9 f3 92 bb 99 89 98 bc d7 fa 47 3c a5 3e 0e bd
       -0.0044846353 -0.0186203 0.012205801 -0.03472771
0003f0 65 e1 da bc 56 5a 60 3d 93 69 05 3d e1 2b 85 bd
       -0.026718805 0.05477365 0.032571387 -0.0650251

conv_layers.1.lin_rel.weight f4 [128, 128]
000000 c4 87 97 3d 47 a0 e2 3c 14 59 8e bd c7 49 34 3d
       0.07398942 0.027664317 -0.06950584 0.044015672
000010 d7 2b 32 bd ad b0 4f 3d 55 80 c3 bd df d1 d8 3c
       -0.04349884 0.0507056 -0.09545962 0.026467262
000020 ba 95 81 3d d2 0e ad bd 84 63 93 3d 39 0b 97 3d
       0.06327386 -0.084500924 0.071967155 0.073751874
000030 eb dc 65 3d b4 2c 24 3d 81 e8 cb bc 1f 5e 9a bc
       0.056118887 0.040081695 -0.02489114 -0.018843709
000040 a2 48 a0 bc 87 e9 5a bd b8 7e 28 bc 47 1c 09 bd
       -0.019565884 -0.053445365 -0.010284118 -0.033474233
000050 2c 72 0e 3d ec d4 6a bc 92 0f 2f 3d 08 39 97 3b
       0.03477685 -0.014332991 0.04273946 0.004614953
000060 09 78 83 3d e6 54 0a be 68 fc b5 bc af e1 b3 3a
       0.06419379 -0.13508949 -0.022215083 0.0013723875
000070 94 2b 69 bd ce 29 c2 bd 2e 02 bf 38 cc 74 46 bd
       -0.056926325 -0.0948063 9.107996e-05 -0.04845123
000080 e2 c6 cd 3c 4a ad 69 3d b0 67 c3 3c ac b6 3f 3b
       0.025119249 0.057050027 0.023853153 0.0029253168
000090 37 67 71 bc c3 ae 10 3c a9 0c 20 3d bf ec 95 bd
       -0.014734081 0.008830729 0.039074574 -0.07320546
0000a0 bc e4 2e 3c 2d 98 a5 3c 90 0c a3 3c 96 4c a7 bc
       0.010674652 0.020214165 0.019903451 -0.020422261
0000b0 25 0a 42 bd cf 9a 88 bd 17 f7 b9 3c f5 f6 52 bc
       -0.047372956 -0.066701524 0.02270083 -0.012876262
0000c0 5a 54 e2 3c 9f 58 7c 3d 3f a9 3d bd ec e3 a8 3d
       0.027628113 0.061607953 -0.046303984 0.08246598
0000d0 65 e8 37 be 99 91 d2 3d 81 9e a4 bd 65 51 20 bd
       -0.17959745 0.10281677 -0.08038045 -0.039140124
0000e0 ec cc 71 3d 92 02 c2 3d e4 d8 81 3d 22 c0 a9 ba
       0.05903332 0.094731465 0.06340197 -0.0012950937
0000f0 47 30 88 bd 77 36 20 3d d7 e0 c5 3d a3 56 bf bc
       -0.06649833 0.03911444 0.096620254 -0.023356741
000100 b3 3a 01 3a 0a 61 88 bd 22 29 80 3d 32 06 88 3d
       0.00049297063 -0.06659134 0.062578455 0.06641807
000110 83 09 12 3d 0e 34 6d bd e2 77 07 bd 2b 8e fd 3d
       0.035653602 -0.05791097 -0.033073314 0.12380632
000120 f6 b6 14 3d 4d 1f 17 3d 33 31 b5 3c a3 b8 23 3b
       0.036307298 0.036895085 0.022118187 0.0024981878
000130 0d b7 4f bd 94 e8 42 bd ae 7b cf bc 34 46 64 3d
       -0.05071168 -0.047585085 -0.02532753 0.055731013
000140 e6 11 be bc 4e 61 29 3d 2c e2 90 bd 96 e7 c0 bc
       -0.023201894 0.041352563 -0.07074389 -0.023547929
000150 94 4c 9f bc 6d 14 17 3d 00 37 57 bd 64 13 ec 3c
       -0.019445695 0.036884714 -0.052542686 0.02881784
000160 1b b7 ae bd 12 37 51 3d 18 b6 5b 3c 3c bf 73 3d
       -0.08531018 0.05107791 0.013410114 0.059508547
000170 a7 9b a4 3d 9c 5c 49 bd 80 13 0f be 8a ed 1e bd
       0.08037501 -0.049160585 -0.13972282 -0.038800754
000180 1a 69 36 3c 75 1c a8 3d ae e2 db bd 18 ae 9e 3d
       0.011133457 0.08208553 -0.10736595 0.077480495
000190 85 98 6f 3d fc 0d ab 3d 30 0a 2d 3d b1 d7 0e be
       0.058495063 0.08352277 0.042246044 -0.13949467
0001a0 35 50 ae 3d e6 71 17 be d0 84 43 be 57 5a 97 bc
       0.08511392 -0.14789543 -0.19093633 -0.018475695
0001b0 06 75 8a bc fb 8d 76 3d ee 7b f7 bc 4a a3 8f bd
       -0.016901504 0.060193997 -0.030210461 -0.07013567
0001c0 09 de 64 bd cd 65 df 3c b4 d2 9a bc f8 71 b0 bd
       -0.05587581 0.027270222 -0.0188993 -0.08615488
0001d0 09 7f eb 3c ea 79 6f 3d f9 ae 77 3b 13 a3 2d bc
       0.028747099 0.058465876 0.00377935 -0.010597962
0001e0 e6 e9 33 3d 00 1d a9 bd 68 c4 85 bd c7 a2 59 bd
       0.043924235 -0.082574844 -0.06531602 -0.053133752
0001f0 9c 31 14 bd 5f b5 49 3d d9 0f f3 3c 52 75 82 bd
       -0.036180124 0.049245235 0.029670643 -0.06370033
000200 29 7a be 3c f8 fa 34 3c 4b 6a 6f 3d e1 d3 b0 3c
       0.02325161 0.011046164 0.05845098 0.021585407
000210 8f 8f 34 3c f6 8e 46 bd df c8 80 3d 97 25 28 bd
       0.011020555 -0.048476182 0.06288313 -0.041051473
000220 5f fe f4 bd f0 f0 ce 3c dc fe 3b bd 80 8e 75 3b
       -0.1196258 0.025261372 -0.04589735 0.003746897
000230 3b de b9 3c 1a 2a 18 3d c7 ec 68 3d 19 2e 16 bd
       0.022688976 0.037149526 0.056866433 -0.036665056
000240 e2 3f 5b 3d 4b 03 7a bd ef 74 c1 3d ed dd 64 3d
       0.05352772 -0.061038297 0.094461314 0.055875707
000250 1a df ab 3d 31 12 77 3d de 55 bd bc b7 b0 8e 3d
       0.083921626 0.060320083 -0.023112234 0.069672994
000260 5c bb 87 bc c7 e5 fd bd 5e 03 44 3d ac 35 ec bc
       -0.016568832 -0.12397342 0.047854774 -0.028834186
000270 2b 23 ac bd 54 07 d3 bc 5f 68 93 bc 5f 2f dd 3d
       -0.08405145 -0.02576033 -0.017994104 0.10800051
000280 36 e6 0a 3d 78 a4 76 3d 2f 9f 44 3d 6a 55 0b bd
       0.033910953 0.060215443 0.04800337 -0.034017004
000290 29 3f 99 bb cb 49 8e 3d 11 be 9d bc b3 a9 59 bd
       -0.0046767187 0.06947669 -0.01925567 -0.053140353
0002a0 35 d2 dd bd c8 db 45 bb 1d df a7 3c 0d 4d 69 bd
       -0.108311094 -0.0030190814 0.02049213 -0.056958247
0002b0 e2 48 1d bd 07 05 a4 3d d8 df 93 bd 83 f6 66 3d
       -0.038399585 0.080087714 -0.07220429 0.056387436
0002c0 4e 7a 7d bb 3d 35 96 bc 81 51 6e bd fb 52 f8 3d
       -0.0038677636 -0.018335933 -0.058183197 0.12125202
0002d0 fb 1c 10 bd cd d8 f3 3d df 40 9c 3d 07 8f 5c bd
       -0.035183888 0.11906586 0.07629561 -0.05384734
0002e0 33 4f 2e bc 0f 3a fa 3c 7b 46 93 bd 64 87 0c bd
       -0.010639 0.030545263 -0.071911775 -0.034308806
0002f0 cb 31 8c bd 70 d3 20 3e f6 92 9f 3d 8f f1 de bb
       -0.06845435 0.15705657 0.077917024 -0.0068036984
000300 de ae aa bb 33 0f a5 bc 82 e4 39 3d e7 55 02 3d
       -0.005208834 -0.02014885 0.045383938 0.031820204
000310 07 d6 8e 3d 73 79 ee 3c d9 bf 0e bd 8e 6c 49 b9
       0.06974416 0.029110646 -0.03485093 -0.00019209294
000320 e3 f5 e9 bc b3 8e 3d 3d 34 73 6e 3c 0d ed ea bd
       -0.02855963 0.046278667 0.014553834 -0.11470995
000330 bb 9c bb bd c0 4c 59 bd 56 c7 52 bd 76 8e 8e bd
       -0.09160753 -0.05305171 -0.051459633 -0.06960766
000340 96 3e 1d bd 1f 61 9d bd 93 88 64 bd 7a 09 4f bd
       -0.038389765 -0.0768454 -0.05579431 -0.050546147
000350 2c 02 08 3d 9a e4 98 bc b0 b7 06 3d 5b 8f 33 3d
       0.033205196 -0.018663693 0.03289002 0.043837886
000360 5f ca b0 3c 0f d0 26 3d 33 9a 38 bd ca bd 88 3d
       0.021580873 0.040725764 -0.04506893 0.066768244
000370 fc 82 80 3c 5d 77 cc bc be f0 81 3b c7 0f 33 bd
       0.015687458 -0.02495926 0.0039654663 -0.04371622
000380 ad 3e 20 3d ec b3 55 3d b0 a9 de bb 13 53 e5 bc
       0.039122272 0.05217354 -0.0067951307 -0.027993714
000390 e3 9e 32 3d 4d b4 2f 3d 54 da 59 3d 40 9f 9d bd
       0.043608557 0.042896558 0.05318673 -0.0769639
0003a0 0d 3c 52 bd 5c dd 84 3c 5a 8d 3f be 33 9e 96 bd
       -0.0513268 0.016218834 -0.18706265 -0.07354393
0003b0 b8 4f 08 3e 31 90 89 3d a7 2e 1b bd 86 d9 b7 bd
       0.1331166 0.067169555 -0.037886288 -0.08977036
0003c0 c9 99 94 3d 7e d9 3d 3d 5a 37 84 bd 80 43 9b bd
       0.07255895 0.046349995 -0.0645587 -0.07581234
0003d0 b7 7e 6c 3c e3 08 aa bd 39 7b ff bb cb ce c0 3b
       0.014434508 -0.08302476 -0.0077966717 0.0058840266
0003e0 12 3f b8 3c 04 03 ac 3d 57 f0 96 3d 66 7a 56 bc
       0.022491012 0.08399013 0.0737006 -0.0130907055
0003f0 75 53 44 bd 5d d9 7b 3d 84 49 31 3c d3 d6 f3 bb
       -0.047931153 0.06148659 0.01082075 -0.0074413805

conv_layers.1.lin_rel.bias f4 [128]
000000 c4 c2 2f 3d ee 4f 9e bd ee 27 27 3d 1f 91 90 3d
       0.042910352 -0.07730089 0.040809564 0.0705893
000010 2b d8 fc 3b ed 6e eb bd f4 ff 48 3d bf 93 d0 3d
       0.007716199 -0.11495767 0.04907222 0.1018443
000020 cf 5a 39 ba ba ae da 3d c6 98 e8 bd a0 b6 78 bd
       -0.00070707215 0.10677858 -0.11357264 -0.06072104
000030 1e e8 90 3c 3f 6d b3 3c 31 2b cc 3d 16 df 85 bd
       0.017688807 0.021902679 0.099691756 -0.06536691
000040 8c da 54 ba f2 83 71 bd bd 46 9d 3d 6c 9d 4e 3c
       -0.0008119724 -0.058963723 0.07679508 0.0126107745
000050 f6 aa 8e b9 ad fb 9f bc f6 13 1d bc 47 9d 64 bd
       -0.00027211726 -0.019529188 -0.009587279 -0.055814054
000060 c9 c6 91 3c 86 40 b0 bd 3e 97 25 3e 4e 82 13 3d
       0.017794983 -0.08606057 0.16170976 0.03601294
000070 89 81 69 3c e1 2d 27 3c c7 41 99 3d b9 e5 eb bb
       0.014252075 0.0102038095 0.07483249 -0.007199016
000080 af 60 bf bd 46 76 0a bc 4c 60 99 3c db 68 ba bc
       -0.09344613 -0.00845105 0.018722676 -0.022755077
000090 90 d1 de 3c 6d 74 1c 3d 8d 05 c1 3d 73 1a 9b 3d
       0.027199537 0.03819697 0.09424887 0.07573404
0000a0 09 e7 2c 3d f8 96 58 3d 81 09 a3 bd 9e 03 63 bc
       0.04221252 0.05287835 -0.07960797 -0.013855843
0000b0 2f b1 a0 3b ea ac 3e bd 28 b5 a7 bd de d0 57 bd
       0.0049039344 -0.046551622 -0.0818885 -0.052689426
0000c0 79 52 88 bd 17 f8 da 3d 21 0e d4 bc d3 7a d1 bd
       -0.066563554 0.10691851 -0.025885643 -0.10228505
0000d0 a7 9a 83 bd 99 8a 2a bd 18 4d 7b bc 05 b7 91 bd
       -0.06425982 -0.041636083 -0.015338205 -0.07114986
0000e0 ec 2b c7 bc db 02 9f 3d 5b f9 b3 3c 0c 53 9b 3d
       -0.024312936 0.077642165 0.021969488 0.07584199
0000f0 2f ca dd 3d 7e 9a 2e 3d 86 fb ea 3d c2 f4 f5 bd
       0.10829579 0.042627804 0.114737555 -0.120095745
000100 10 ee 5e bd 2a 52 a3 3d 5f 3d ce 3d 09 c4 df 3c
       -0.054426253 0.07974656 0.10070299 0.027315157
000110 e7 e6 d8 bd 02 f4 21 3e 86 d7 4a bd f1 b0 3a 3d
       -0.10590916 0.15815738 -0.049521945 0.0455789
000120 9c 35 1b 3d 8c cb 87 bd bf 46 09 3d 43 c8 cd bd
       0.037892923 -0.0663062 0.033514734 -0.100479625
000130 51 31 d3 bd b3 ed 72 bc 84 26 8e bc e4 24 59 bd
       -0.10312141 -0.01482718 -0.01735235 -0.053013697
000140 b4 52 0a 3d ec c3 4a bc c8 f2 2d bd fd a5 a8 bc
       0.033770278 -0.012375813 -0.042467862 -0.020586962
000150 4f ee 5f bd 56 f0 40 bd c3 67 b3 bd b6 4e ff bb
       -0.05467063 -0.047104202 -0.08760025 -0.0077913655
000160 f8 59 7e 3c 87 67 a0 bb 65 31 e2 bd bf 44 a8 bb
       0.01552438 -0.004895154 -0.110445775 -0.0051351483
000170 2f 1e 80 bd a3 af 6b bd 8c 09 40 3e 1b ea 94 bd
       -0.06255757 -0.057540547 0.18753642 -0.072712146
000180 ca 9c 88 3d 2a 17 f7 bc df 90 b8 3d 21 64 a3 bd
       0.0667053 -0.030162413 0.09012007 -0.079780824
000190 be 29 db 3c 70 65 5a bd bb 04 5b bd 24 4b e3 bd
       0.026753303 -0.053319395 -0.05347131 -0.11098316
0001a0 2e 86 61 3d ab e6 4c bd c2 ee 56 3c 08 7c 6a bd
       0.055059604 -0.05002467 0.013118448 -0.05724719
0001b0 de 9b 53 3c 03 15 03 3e 47 ad 04 bd d9 27 c9 3d
       0.01291558 0.12800984 -0.032391813 0.098220535
0001c0 9d 55 9e bd 08 57 da bd 7e f2 9c bc 33 c7 b5 bd
       -0.07731173 -0.10661131 -0.019158598 -0.08875885
0001d0 3a 2b 66 bd a9 24 ce bd 4a 68 27 bd 65 d4 90 bd
       -0.056193568 -0.10065586 -0.040870942 -0.07071761
0001e0 81 df 50 3d eb 40 d0 bd bc 74 18 3d ab 92 b4 bc
       0.0509944 -0.10168632 0.0372207 -0.022042593
0001f0 e2 81 ad bc 5d a6 86 3d 26 e6 18 be 3e 3e 46 3d
       -0.021180097 0.065747 -0.14931545 0.048399203

conv_layers.1.lin_root.weight f4 [128, 128]
000000 26 3b ac 3d b2 c4 80 bb 83 6e 95 3c d9 a5 5f bd
       0.08409719 -0.003929698 0.018241173 -0.054601524
000010 f4 64 83 bd 99 03 b5 3d 72 54 bd 3c 29 94 33 3d
       -0.0641574 0.08838577 0.023111556 0.04384247
000020 23 6a 15 bc 1e ee 5c bc 0c 82 34 bd da ac 31 3d
       -0.009119543 -0.013484506 -0.044069335 0.043377735
000030 82 e9 1b 3d 69 39 86 3d a9 9d f5 bd 13 73 83 3d
       0.038064487 0.06553919 -0.11992962 0.06418433
000040 3d 24 b1 3d 56 f5 c4 bc a9 3f 91 3d df 69 5b bd
       0.0864949 -0.024042767 0.0709222 -0.053567763
000050 62 75 08 3d d6 2e 9c bd 6b 9d 5b bc 24 f3 0d be
       0.03331507 -0.07626121 -0.013404231 -0.13862282
000060 e8 d9 c3 3d ce d4 b5 3d ea 6d 32 3d 52 87 fb 3c
       0.09563047 0.0887848 0.043561853 0.030704174
000070 11 53 a3 bb 77 d0 5f bd 68 15 91 bd 2d 66 cc bb
       -0.0049842675 -0.054642167 -0.07084161 -0.0062377662
000080 4a 68 47 bd 8d fb 7d bd 68 7d 98 bc 58 d5 9d bd
       -0.048683442 -0.062007476 -0.018614486 -0.07706708
000090 c0 60 0b bd 91 a5 22 3d 45 91 cf 3c 8f 92 6a 3c
       -0.034027815 0.039708678 0.025337825 0.014317169
0000a0 b1 94 02 3e 64 b5 2e 3c ca 33 31 3d 19 0c a4 3d
       0.12752034 0.010663364 0.04326228 0.0801012
0000b0 b4 fd 1c 3d ed f4 1b 3d 58 1a 5d bd b9 1e 2b 3d
       0.038327888 0.038075376 -0.0539802 0.041777346
0000c0 80 4c bd ba 9e 39 76 3d 38 6e 9f 3d 45 e3 a2 3d
       -0.0014442354 0.06011354 0.077846944 0.079535045
0000d0 b3 5f f7 3c ce 3b 02 3e 82 05 a0 3c 64 67 0b bd
       0.030197 0.12718126 0.019533876 -0.034034148
0000e0 b8 cb 92 3c e8 02 1d bd 2f 65 99 bd 77 9c 3f bd
       0.017919406 -0.03833285 -0.07490002 -0.046780076
0000f0 05 c2 48 bb 31 f7 a7 3d 6c 96 23 3e da 49 34 bd
       -0.0030633223 0.08201445 0.1597535 -0.044015743
000100 fb 52 a2 3d 10 3c 78 3d a5 9e 7b 3c e6 95 68 3d
       0.079259835 0.060604155 0.015357648 0.05678358
000110 c2 4e 68 bd 49 b2 ae 3d fe 44 f4 3c d6 6c 2a 3d
       -0.056715734 0.08530099 0.029818054 0.0416077
000120 b7 27 25 3d 8c 83 a6 3c 3b 72 4e bd 7c c9 b2 3d
       0.04032108 0.020326398 -0.050401907 0.08729836
000130 fc 42 96 bd f7 5f ae 3d 0d 3f 48 3d bd 3e 63 3d
       -0.07336995 0.085143976 0.048888255 0.055479754
000140 2b 06 04 3e 46 c3 27 3d 7b 36 a9 bd 89 87 2c 3d
       0.12892978 0.04095771 -0.082623444 0.042121444
000150 11 2c 83 bc bb 16 be 3d ca 93 37 bd 6c 56 13 bc
       -0.016012223 0.09281679 -0.044818677 -0.008992773
000160 a5 a9 ef 3c 39 c5 2e 3c 21 3d 6e bd 43 fc a1 bd
       0.029255698 0.010667139 -0.058163766 -0.07909443
000170 5f 7a 9e bd 29 27 be 3c 57 20 e8 3c a4 c0 ae 3d
       -0.07738184 0.023212032 0.028335733 0.08532837
000180 42 72 0f bd f6 44 29 bd 20 1a 9b bd d5 3d 72 bb
       -0.035021074 -0.041325532 -0.07573342 -0.0036963124
000190 16 46 96 3d 34 1a 01 3d 40 a0 45 bc 53 c7 97 bd
       0.073375866 0.03151913 -0.012062132 -0.07411065
0001a0 23 d4 be bb 5c 2c 37 3c 03 ee a4 bd a4 da 9d bb
       -0.0058236285 0.01118001 -0.0805321 -0.0048173238
0001b0 1f c5 f4 3c b6 fe b2 3c 87 97 97 3d dc 99 b9 bd
       0.02987915 0.021849971 0.074019484 -0.090625495
0001c0 67 be 06 bd 7f b5 9b bd 76 d5 71 bc 15 c3 21 3d
       -0.032896426 -0.07602977 -0.014760366 0.039492685
0001d0 30 28 81 3d cd dd e5 3d 07 03 5a 3c 62 37 40 3c
       0.06306493 0.11223946 0.013306386 0.011731954
0001e0 0e bc 20 bd 44 b2 cc 3c 04 4f 55 bd 7c 63 36 3d
       -0.039241843 0.024987347 -0.05207731 0.04452847
0001f0 f7 29 54 3c 42 a8 91 3c 40 22 93 bd 2e 86 2b bd
       0.012949458 0.017780427 -0.07184267 -0.04187601
000200 14 48 52 bc de 16 50 3d 61 13 a4 3d be 9f b0 3d
       -0.012834568 0.050803058 0.08011509 0.086242184
000210 a2 7b 28 3d 3b ce 5b 3c 93 2d b2 bd 69 2d 97 bc
       0.04113353 0.013415868 -0.08700099 -0.01845427
000220 3e b3 34 bd 41 61 a8 bd 8f 12 44 3c 5b 24 12 3c
       -0.04411625 -0.08221675 0.011967315 0.008919801
000230 17 48 44 bd 1c 07 25 3d aa 24 9c 3d b9 3c 85 bd
       -0.047920313 0.040289983 0.076241806 -0.065057226
000240 9d 12 05 bd 4c 69 89 bd 6c 19 61 3c 5a 28 69 3d
       -0.032488454 -0.06709537 0.013738971 0.056923248
000250 a5 f7 9a bd 03 5e 92 bd 14 8c a8 3d 5e 26 ec 3d
       -0.07566766 -0.071468376 0.08229843 0.115307555
000260 86 52 5a 3d 07 ad be bd 21 16 2f bb ff f3 a9 3d
       0.053301357 -0.09310346 -0.002671607 0.08298492
000270 22 39 96 bd 6f f1 61 bd 44 ce a7 3d 9c 17 ca bd
       -0.07335116 -0.05516189 0.08193639 -0.098677844
000280 28 ed 3a bc a6 9c 80 3d 96 93 f8 3c 42 be 96 3d
       -0.0114090815 0.06279878 0.030343812 0.073605075
000290 54 2d 84 bd f8 7a 96 3d de 2e 0a 3c e1 16 80 bc
       -0.06453958 0.07347673 0.008434026 -0.01563591
0002a0 e3 f8 c3 bd 76 b4 84 bd 3f 31 d0 bc 26 b5 55 3d
       -0.09568956 -0.06479733 -0.025414107 0.05217471
0002b0 a3 c5 0c 3d 05 6f 15 3d 6e 39 82 bb d2 89 17 3c
       0.03436817 0.03648283 -0.0039741313 0.0092491675
0002c0 f3 db 91 3d 05 86 96 3d e4 3d 7a 3d b9 ad 4b 3d
       0.0712203 0.07349781 0.06109418 0.04972622
0002d0 be f2 a0 bd 10 46 d6 bb 11 4a 4b bd ba 2c 08 bc
       -0.078587994 -0.006539114 -0.049631182 -0.008311445
0002e0 55 a9 a0 3d 47 34 d5 3d 67 2b 9d bd 3d 96 a0 bd
       0.078447975 0.10410362 -0.07674294 -0.07841156
0002f0 d7 69 3c bd 93 73 c3 b9 47 22 fc 3c 3d aa 91 3d
       -0.045999374 -0.00037279408 0.030778063 0.071125485
000300 cc 25 1c 3d 78 31 e0 bb 78 fe ae bd bc 27 23 3d
       0.038121983 -0.0068418346 -0.0854463 0.039832816
000310 b4 80 cc bc 4e e6 fc 3c a0 58 4f 3d b9 bd 83 bc
       -0.024963714 0.030871537 0.05062163 -0.016081678
000320 f4 40 ad 3d ad 90 ab ba ea d6 83 bc 7f 70 b2 bd
       0.084596545 -0.0013089381 -0.01609369 -0.08712863
000330 5e 64 59 bd 6a 03 10 be 57 d0 85 3d 83 04 4f bd
       -0.053074233 -0.14063802 0.06533878 -0.050541412
000340 b7 17 8d bd de 7a 10 bd e0 5b 5f bc b1 f5 0c bd
       -0.06889289 -0.035273425 -0.013632745 -0.034413997
000350 03 52 1e 3d 77 a8 20 3d 03 b3 9f bd c5 2d 9f 3c
       0.03865243 0.03922316 -0.07797816 0.019431004
000360 f3 f3 9d bd 29 3a 99 bd 8b 5e 3a 3d 59 c9 c2 3c
       -0.07712545 -0.07481796 0.04550032 0.02377765
000370 59 5b ce bb 8a ec d3 bc af 12 3d be 1d 18 25 3d
       -0.0062975106 -0.025869627 -0.18464158 0.0403062
000380 3d ef 63 bd 1e 5c b0 bd 3a 7b cd bc b4 9b cb bc
       -0.055648077 -0.0861132 -0.025083173 -0.024854518
000390 50 bb b2 3c 49 27 16 bd 6d c6 fd 3c 4b 5d 64 bd
       0.021817833 -0.03665856 0.030978406 -0.055753034
0003a0 44 0c 8e 3d 5f dd cb bd 19 d2 f0 bc d1 84 13 3d
       0.06935933 -0.099543326 -0.029397057 0.036015335
0003b0 5e 6d e6 bd e8 3c aa bd 29 52 41 bd 5e 20 9b bd
       -0.11251329 -0.08312398 -0.047197495 -0.07574533
0003c0 34 b7 62 3d 61 88 3a bd 57 bc 60 3d 9f 50 bf bd
       0.055350497 -0.045540217 0.054867115 -0.09341549
0003d0 ca fc 70 bd 26 ca 34 bd 3c b2 24 bd dc af 31 3d
       -0.05883483 -0.044138096 -0.04020904 0.043380603
0003e0 f6 a0 77 bc 32 2d a2 3c 9d ea d1 3c a7 3a 71 bd
       -0.01511406 0.019796941 0.025624568 -0.058893826
0003f0 af b1 3f bb 37 8e 81 3c 9b 6f 83 bd bd 60 ab bd
       -0.0029250195 0.015814884 -0.064177714 -0.08368061
